maze_model.pt (torch, 7191 bytes, 6 tensors)

hidden1.weight f4 [32, 2]
000000 92 ba 00 3f 8c c5 00 bf be 25 5b 3f 3f bb 1a bf
       0.50284684 -0.5030143 0.85604465 -0.60441965
000010 d6 97 ec be 5b e5 8c 3f 14 0f be be cf 48 0c 3f
       -0.46209592 1.1007494 -0.3712088 0.547986
000020 67 b2 24 3e 8b 69 38 bd 80 10 46 3d 76 c3 c1 be
       0.1608368 -0.04502253 0.04835558 -0.37844437
000030 20 b2 21 3f 7b 83 d7 be e0 38 0a 3f 97 61 f0 bd
       0.6316242 -0.420925 0.53993034 -0.11737364
000040 dd ad 72 be f2 58 56 3f 87 f7 2f 3f 2a db f0 be
       -0.23699136 0.8372947 0.6873707 -0.4704221
000050 f5 64 a7 be 30 ca 5d bd a0 99 28 3e 9c ad 15 bf
       -0.32694212 -0.0541479 0.16464853 -0.5846803
000060 79 20 3d 3e f6 9e aa bd 12 4f 55 3f 29 69 3d be
       0.18469419 -0.08331101 0.83323777 -0.18497147
000070 ed e2 a6 be 54 02 40 be 8c 43 0f bf 30 54 8b bd
       -0.32595006 -0.18750888 -0.55962443 -0.06803167
000080 7b 07 dd 3e 48 83 02 3c d6 00 87 be 5f c5 a7 3f
       0.4316977 0.00796587 -0.26367825 1.3107108
000090 52 93 71 3f 22 02 de 3d 3c 04 4b be 68 a5 66 be
       0.9436542 0.108402506 -0.19825834 -0.22524035
0000a0 d2 76 1f 3f f1 66 53 be 5c 04 7b be 1c 6e 03 3e
       0.6229068 -0.20644738 -0.24513382 0.12834972
0000b0 72 c6 10 bf 60 12 42 3f 77 fa 1d bf 03 6c 23 bf
       -0.56552804 0.7580929 -0.61710304 -0.6383669
0000c0 00 2f a7 3c a0 4e 9d 3d 00 df 07 bc 3c ad 37 be
       0.020408154 0.07681012 -0.008292913 -0.17937177
0000d0 74 de 2d 3f bd 81 b7 be da 47 ea be 3f 53 a0 3f
       0.6791756 -0.3584117 -0.45757943 1.2525405
0000e0 da 35 0e bf 18 99 56 be fe 12 8f 3f f0 2c a9 be
       -0.5555092 -0.20956838 1.1177671 -0.33042097
0000f0 af a2 4c be 42 93 86 3f fc 63 63 be 9c b0 5a 3e
       -0.19983934 1.051369 -0.2220611 0.21356434

hidden1.bias f4 [32]
000000 d7 29 fb be 2d 08 78 be cf c7 88 3e 53 20 71 3f
       -0.4905536 -0.24221869 0.26714942 0.9418995
000010 9a 44 85 3f 36 47 54 be 50 65 a6 3f 46 c8 d0 be
       1.041156 -0.2073029 1.2999668 -0.40777797
000020 0e b6 24 3f 3a ff 62 bf 38 39 95 3d 12 23 ed be
       0.64340293 -0.88670695 0.07286304 -0.4631582
000030 4f 61 89 3f 31 97 60 3f 22 57 c9 3e 74 c9 3e 3e
       1.0732821 0.877307 0.3932429 0.18631536
000040 50 fb 5a bf a4 2e 06 bf 27 5f 43 3d 28 6b f4 3d
       -0.8553972 -0.5241492 0.047698166 0.11934501
000050 b2 a3 85 bf 36 ea d4 be cc 21 64 3f f2 1f d8 3e
       -1.0440581 -0.4158494 0.8911407 0.42211872
000060 1b c7 0c bf 20 32 28 be 22 7a b4 3f 74 a6 8f be
       -0.5499131 -0.16425371 1.4099772 -0.2805668
000070 48 61 08 bf e5 a8 b0 3f 87 05 e0 be 77 ca ac 3f
       -0.5327344 1.3801543 -0.43754217 1.3499287

hidden2.weight f4 [32, 32]
000000 79 c6 16 bf 54 cc 36 3e ca 16 79 3d 4c 05 0e 3f
       -0.58896595 0.17851382 0.06081275 0.5547683
000010 63 fc 37 3f 5d d4 17 3e 37 72 46 3f 81 fb 1a 3e
       0.71869487 0.14827104 0.7751803 0.15135004
000020 f6 17 e0 3e 8a 48 91 bf c8 6a cb bc 99 32 e0 bd
       0.4376828 -1.1350262 -0.02483119 -0.10947151
000030 d6 76 f0 3e e7 e2 c0 3e d6 84 24 be 14 ea 34 3d
       0.46965665 0.37673113 -0.16066298 0.044168547
000040 7d 46 b2 bf 97 01 86 be 34 52 cf 3e ba b9 93 3d
       -1.3927761 -0.26173088 0.40492404 0.07213159
000050 18 6f 75 bf 1b 59 ca bd 03 d7 d7 3e ee 29 0d be
       -0.9587264 -0.09880277 0.42156228 -0.13785526
000060 bf ab 13 be 00 81 d2 bc 21 ca 46 3f 7e 85 8e bf
       -0.14420985 -0.025696278 0.77652174 -1.1134489
000070 b4 7e 15 bd 20 0d 2c 3f f0 3f 84 bf ab 3c 3a 3f
       -0.036497787 0.6720753 -1.0332012 0.7274882
000080 46 81 1e 3f 42 35 1f 3f a5 f9 17 bf 1b f6 68 bf
       0.61916006 0.6219064 -0.593653 -0.9100053
000090 95 18 cc bd e0 06 ae 3b e3 a9 2e 3e f8 66 d1 3e
       -0.09965626 0.005310878 0.17056994 0.4089887
0000a0 8a f2 82 be 7e f0 8b 3f 98 25 50 3d ee 18 fa 3d
       -0.25575668 1.0932767 0.050817102 0.12211786
0000b0 b1 57 38 be 3b 5c 39 3e 7d df 05 be 2d 4a 1b 3e
       -0.18002202 0.1810159 -0.13073535 0.15165015
0000c0 5b 12 32 3f 2d ff 72 be 1f ff 96 3e fa 3a 27 be
       0.6955926 -0.23730154 0.29491517 -0.16331092
0000d0 a0 52 2e 3f 0f cc 1a 3e 6c 9b a9 bf 4c 78 16 3d
       0.68094826 0.15116905 -1.3250556 0.036735818
0000e0 72 fe cd 3d 18 94 d8 3c 0a 59 25 bd 4c 4d 43 3f
       0.10058297 0.026437804 -0.040368117 0.7628982
0000f0 e4 e8 0e be e0 cb 8f 3e c8 70 43 be 9c a3 24 bf
       -0.13956028 0.28085232 -0.19085991 -0.6431215
000100 38 0b ec bc ca f0 c7 3d c8 70 14 3d 9d 29 11 3e
       -0.028813943 0.09762724 0.03624037 0.1417603
000110 80 83 5a bd 7e e3 a0 3d 40 b4 b7 bb 2c 12 16 3d
       -0.053348064 0.07855891 -0.0056062043 0.036638424
000120 18 59 2b be e4 9a 82 3d fc 7b 2e 3d 95 49 0f be
       -0.16733205 0.06377199 0.04259871 -0.13992913
000130 a5 90 b1 bd bf 84 e8 bd e4 9d 6d 3d ba cc df 3d
       -0.08670167 -0.11353444 0.058011904 0.1092772
000140 fe 7f 23 be 7f 2d 1a be 00 2a dd 3c 4e b2 bf bd
       -0.15966794 -0.15056418 0.026997566 -0.09360181
000150 5b 14 0e be f6 47 ae 3d ca 98 be 3d 18 89 33 be
       -0.13874952 0.08509819 0.09306486 -0.17532766
000160 90 41 33 be 28 9c 36 bd 15 75 8b bd 9c 0a 01 bd
       -0.17505479 -0.044582516 -0.06809441 -0.03150426
000170 c2 71 88 bd b8 2a 33 bd 8b 1e 1b be c0 b7 d7 bb
       -0.066623226 -0.04374191 -0.1514837 -0.006583184
000180 c9 ea 1d be 5a 2f 2e be 0e e0 ef bd c8 68 1c bd
       -0.15421595 -0.1701025 -0.11712657 -0.038185865
000190 c0 1f fe bb 10 4b bb bc d7 4d bb bd 93 4b 29 be
       -0.0077552497 -0.022862941 -0.09145706 -0.16532736
0001a0 b2 6d ba bd 38 c3 2d be e9 86 2b be b4 fc b9 bd
       -0.09102954 -0.16969001 -0.16750683 -0.090814024
0001b0 28 db 07 bd e5 4f fc bd ac 9b be bd 59 7f 10 3e
       -0.033167988 -0.12319926 -0.09307036 0.1411108
0001c0 e2 c2 af 3d 3c d7 7a 3d 41 26 c1 bd 08 b4 9c 3c
       0.08582093 0.06124042 -0.094311245 0.019128814
0001d0 0c 90 3f 3d 79 94 95 bd 48 00 f5 3c 17 38 22 3e
       0.046768233 -0.073037095 0.02990736 0.15841709
0001e0 18 ea 9a bd d6 80 0f be 35 de 30 3e 0c 12 68 bd
       -0.07564181 -0.14013991 0.17272265 -0.056657836
0001f0 4b 49 29 3e a6 e3 9b bd 20 14 c9 3b 04 45 ea bd
       0.16531865 -0.0761178 0.0061364323 -0.11438945
000200 a6 cc 37 3f 08 4e fc 3e 44 f4 15 3e b6 46 94 bf
       0.71796644 0.49278283 0.14643961 -1.1584079
000210 8d 52 97 be ac 54 4c bd 69 92 3c be af 3f 27 3f
       -0.2955517 -0.049885437 -0.18415226 0.6533155
000220 e8 8b a8 be b1 c2 5f 3f 92 fc ce bd b3 6b ee bd
       -0.3291924 0.8740645 -0.10106768 -0.11641636
000230 b9 ec c7 be 54 51 8d bd 80 b3 8d 3b 10 55 a0 bc
       -0.39047793 -0.06900278 0.0043243766 -0.019571811
000240 a4 0f 9e 3f c6 b5 34 3f 5f a7 3f 3e b8 c1 d6 bd
       1.2348523 0.70589864 0.18716191 -0.10486168
000250 05 3d 78 3f 5c cc 5f 3d fb 7e e5 be 5f 1a 03 3e
       0.9696811 0.05463825 -0.4482344 0.12803029
000260 09 b6 30 3e 7e 16 e0 3d ce 46 44 3c 7e 93 b1 bd
       0.17256941 0.1094179 0.011979772 -0.0867071
000270 86 a9 b2 bd 73 a9 10 bc 08 39 55 3f 15 90 21 bf
       -0.0872374 -0.008829462 0.8329015 -0.63110477
000280 aa 3b 25 3d 23 9e 78 3d d9 c8 89 3d 7e 54 00 be
       0.040340103 0.060697686 0.06727762 -0.12532231
000290 22 db 3b be 7a 4b 86 bd 24 69 39 be 5b a2 2b be
       -0.18345311 -0.06557365 -0.18106514 -0.16761152
0002a0 e0 db b4 bd bd 08 0d be d4 76 12 3d 28 1c bb bc
       -0.08831 -0.13772865 0.035757855 -0.022840574
0002b0 75 ec b6 bd 13 b1 57 3d c8 6b d7 bc 09 e9 29 3e
       -0.08931819 0.052659106 -0.026296511 0.16592802
0002c0 f6 13 2e 3d e5 24 0f be 78 c6 ba bb f1 20 06 3e
       0.042499505 -0.13978918 -0.005699929 0.13098504
0002d0 51 18 0d be 0a 03 ac bd b0 c9 5e bd 30 fd 44 bc
       -0.13778807 -0.08399017 -0.054391563 -0.012023255
0002e0 48 fb 99 bd 70 2a 61 bd 5f cb a6 3d 53 1d 82 bd
       -0.07518631 -0.054972112 0.08144259 -0.063532494
0002f0 55 a9 b9 bd 3a c7 ce 3d fd 28 0e 3e cb 39 4a be
       -0.09065501 0.10096593 0.13882823 -0.19748609
000300 51 af 66 3d ba 4c 2f bd 19 ac cd bd 80 e3 b3 ba
       0.05631954 -0.04279778 -0.10042591 -0.0013724416
000310 5b 17 08 be b9 04 28 3e bb a2 ce 3d 6d a3 19 3e
       -0.1329016 0.16408052 0.10089632 0.15003748
000320 10 00 b4 3d 7f 3f 27 3d d7 a2 1a 3e 00 90 16 3a
       0.087890744 0.04083204 0.15101181 0.00057435036
000330 29 d7 2d be b2 a5 34 3d 80 7a 26 3b 18 7c ec 3c
       -0.16976608 0.044103332 0.0025402606 0.028867766
000340 1e d7 f2 3d 80 87 c2 bd be c8 40 be 78 b1 fb bc
       0.118574366 -0.09498501 -0.18826577 -0.030724272
000350 2c 35 3c bc 8c 33 83 3d 20 cc b4 3c 9b 42 26 3e
       -0.011487287 0.06406316 0.02206999 0.16236345
000360 42 8b 86 3d b6 31 d1 3d e4 6d 24 be e6 33 a2 3d
       0.0656953 0.1021456 -0.16057545 0.07920055
000370 f0 b9 2f bd 16 8c a9 3d 15 2e 1e be 9b 39 43 be
       -0.042901933 0.082786724 -0.15447266 -0.19064943
000380 f9 10 16 bf cc 77 4c bf 3a c6 e3 3e 07 1e bf 3e
       -0.5861965 -0.79870296 0.44487172 0.37327597
000390 e7 e4 04 3e b0 4a dc 3c f5 b1 99 be ca 28 c1 be
       0.12977944 0.026891083 -0.30018583 -0.37726432
0003a0 5e f9 c6 3e cf 38 c8 3e 60 04 9e 3b 82 4b e2 3d
       0.38862127 0.39105842 0.004822299 0.11049558
0003b0 12 5d 12 bd 80 ac 3b be 6a 61 e1 3d 3d e3 0a 3e
       -0.03573329 -0.18327522 0.110049084 0.13563247
0003c0 2c 2a b9 3e b5 55 c5 3e d8 13 b2 bc a0 db f8 3b
       0.36164987 0.38541952 -0.021737978 0.0075945407
0003d0 62 b0 5f 3e 50 56 f9 bc 99 4b b9 3e 9c be 42 bd
       0.21844628 -0.030436665 0.3619049 -0.04754506
0003e0 b3 34 2c 3e 18 9f 44 bd cd 2e 94 3d 1d 21 5e 3f
       0.16816978 -0.048003286 0.07235489 0.86769277
0003f0 10 c6 06 bc 0f d7 53 bd f0 a3 23 3f 54 3a c7 3e
       -0.008225933 -0.051718768 0.63922024 0.38911688

hidden2.bias f4 [32]
000000 fb fd 11 3f 79 4e 9e be 19 6d 1e be c8 26 0e be
       0.5702817 -0.30919245 -0.15471305 -0.13881981
000010 dc f6 ec be dd 4c dc bd 40 98 a9 bb d4 f1 ec 3d
       -0.4628209 -0.10756848 -0.0051756203 0.115695626
000020 da 7f 14 3e 5d c0 84 3c 2d 98 58 bd eb 89 44 3e
       0.14501897 0.016205007 -0.0528795 0.19193237
000030 be 59 d4 3e 9c d6 23 3f be d1 f2 bd 50 66 7d 3c
       0.41474718 0.6399934 -0.118564114 0.015466288
000040 8f 41 31 3f 6e 2c f7 3c f0 c2 1b bd 26 8d 8a bd
       0.6924066 0.030172553 -0.038027704 -0.06765203
000050 d6 c7 fb 3c 84 18 aa 3e 00 e4 48 ba c9 06 0d 3e
       0.030734938 0.3322183 -0.0007663369 0.1377212
000060 6f 7a 0c be 80 97 b0 3a 29 6c 1a 3e 24 41 6c 3e
       -0.1371858 0.0013472885 0.15080322 0.23071724
000070 7d ac 25 be ba 66 6c bd d4 c9 9a bb 96 f9 0c 3f
       -0.1617908 -0.057715155 -0.004723767 0.5506834

output.weight f4 [5, 32]
000000 b5 58 b6 be 61 a8 a0 3e 1e f1 9e 3d a3 c2 25 3e
       -0.35614553 0.31378463 0.07760833 0.1618753
000010 8c 4d 62 3f e8 ff ed bd b8 95 d4 bc ae b6 c6 3e
       0.8839958 -0.11621076 -0.025950298 0.3881125
000020 51 1e 2a 3e e8 09 3b be 4c 0c c6 3d 40 b7 88 be
       0.16613127 -0.18265498 0.09670314 -0.2670231
000030 7e fa 86 bc 12 a2 e9 bd 2d 5d 00 3f 54 7a af bd
       -0.016476866 -0.114078656 0.50142175 -0.08568254
000040 17 e5 d5 be 4e 8d 09 3e 07 c9 07 be c6 cd 5a bd
       -0.41776344 0.1343281 -0.1326028 -0.053418897
000050 87 ac 1c be 5a a3 99 3d f4 72 bf bd b4 3d ff 3d
       -0.15300189 0.0750186 -0.093480974 0.12462941
000060 d2 c7 8d 3d 60 06 4f 3d 11 e7 59 bc 13 79 f9 be
       0.06922878 0.05054319 -0.013299719 -0.48725185
000070 ba 1e e3 3d 32 f4 23 3e 57 67 4c 3f 10 cb 4c be
       0.11089845 0.16011122 0.79845184 -0.19999337
000080 18 39 16 bf 2b 15 a8 3f 7a 86 b5 3d f8 eb c1 bc
       -0.5868087 1.313146 0.0886354 -0.023672089
000090 6b 34 ce be 5c 0c d2 3d cd 0e 9c bd ff 16 9a 3f
       -0.40274367 0.102562636 -0.076200105 1.2038268
0000a0 e3 93 39 3d 11 c5 d1 3e ac 14 b5 3c b3 f3 ac be
       0.04530705 0.40970662 0.022104584 -0.33779678
0000b0 c9 ea 47 bf 43 4f b1 be 7e db 44 3f 6c d3 d1 bd
       -0.7809263 -0.34630784 0.7689742 -0.10245404
0000c0 e2 d1 42 bf 88 a8 35 bc 72 e5 80 bd e4 02 0c be
       -0.76101506 -0.011087544 -0.06293763 -0.13672978
0000d0 9b fb c6 3d 14 41 78 3d b0 d7 4a 3c 31 34 6d 3d
       0.09715959 0.06060894 0.0123805255 0.0579111
0000e0 14 40 3f bd fc 7b 06 3d 61 e8 c3 be 5b 37 b0 be
       -0.04669197 0.032833084 -0.3826323 -0.34417233
0000f0 f8 cb 9f bc b7 40 1d bd 2e 03 99 3f 7e d4 32 bf
       -0.01950644 -0.038391795 1.1954095 -0.6985549
000100 99 aa 92 be f7 53 e3 3c 69 f6 f7 bd 29 52 0f 3e
       -0.2864578 0.027749998 -0.12107546 0.13996185
000110 8e 94 0a 40 94 27 6b 3b 02 c9 92 bd 07 7f 98 be
       2.165317 0.0035881745 -0.071672454 -0.29784414
000120 b5 27 8e bf d4 ef 48 bf 49 ff 06 be cc 1f 48 be
       -1.1105868 -0.7849095 -0.13183321 -0.1954338
000130 d4 3c 8f 3f 5e 35 ae be e0 b8 92 be d2 b9 ef bd
       1.1190438 -0.3402509 -0.28656673 -0.11705364
000140 30 ae ca bb c8 9f d7 bd 9a 29 de 3d 23 c3 07 3e
       -0.0061853155 -0.10528523 0.108477786 0.13258033
000150 5c b1 a9 bb e4 c9 24 3f 22 63 bc 3d 9a a6 f6 3d
       -0.0051786136 0.6437056 0.091985956 0.120434955
000160 58 24 35 bd 74 17 41 bd 96 be 94 be b2 5b 0b be
       -0.044224113 -0.047141507 -0.29051656 -0.13609198
000170 24 03 a4 3d 9e 92 1a 3e 5e a6 0e bf d9 76 dc 3e
       0.080084115 0.15094993 -0.55722606 0.43059424
000180 89 e8 aa be f3 53 fb bd 82 d7 af 3d 80 eb df 3b
       -0.33380535 -0.122718714 0.08586027 0.0068334937
000190 8f 89 8f 3f a2 b0 16 3d f1 e2 4d bd 6c e4 e9 3e
       1.1213855 0.036789544 -0.050265256 0.45682085
0001a0 1c 29 66 3d e9 08 0b 3f 89 5f e1 3d e4 d6 26 bd
       0.05619155 0.5431047 0.1100455 -0.04073228
0001b0 5a 65 df be e4 83 b8 bd 40 29 6b 3f 68 9b 46 3d
       -0.43632013 -0.09009531 0.9185982 0.04848805
0001c0 f6 c8 c8 be ab 2e dc 3c 64 21 bf bd 11 d0 08 3e
       -0.3921582 0.026877722 -0.09332541 0.13360621
0001d0 a8 35 16 3e 96 3b 80 be a0 55 10 be 86 42 73 3d
       0.14668906 -0.2504546 -0.14095163 0.059389614
0001e0 e0 dc 22 be 88 e0 49 bd 83 c1 02 bd a9 de 95 be
       -0.1590457 -0.049286395 -0.03192283 -0.2927144
0001f0 92 be e0 3d ef c1 44 3d 6d dd bb be 5e 74 1b bf
       0.109738484 0.048036512 -0.36692372 -0.6072444
000200 ce 42 15 be 68 74 67 3f 30 91 80 3d b4 89 3a bd
       -0.14576265 0.90411997 0.06277692 -0.04554148
000210 49 6c 09 3f fc dc a4 bb b1 7e e5 3b 14 a4 e3 3d
       0.53680855 -0.005031226 0.007003628 0.1111528
000220 2e 60 1f bf b3 e1 ba be 23 93 3e 3d d1 50 9c be
       -0.62256134 -0.3650032 0.04652704 -0.30530408
000230 60 40 2b 3e 09 1a 94 be 87 87 2e be 70 d5 89 bc
       0.16723776 -0.28926113 -0.17043887 -0.016825408
000240 44 bd 93 be cb 91 19 bc 4f 82 04 be 92 53 89 bd
       -0.28855336 -0.009373139 -0.12940334 -0.06705393
000250 b8 ed 0e 3e 6b a0 c1 3e de 8f eb bd 61 6e d2 bd
       0.1395787 0.37817702 -0.1150205 -0.10274959
000260 e4 76 62 3d 88 6f e8 bd 4f f6 e7 ba d0 79 c5 be
       0.055289164 -0.11349398 -0.0017697307 -0.38569498
000270 8f 5b 2f 3d 00 bd 16 bd 22 eb 3a 3f d3 75 7e 3c
       0.042811926 -0.03680134 0.73015034 0.015531021

output.bias f4 [5]
000000 b4 70 a3 bd c0 49 7a be 43 e6 b1 be db fd 98 be
       -0.07980481 -0.24442196 -0.34745988 -0.29881176
000010 ff ee 30 be
       -0.1727867
